quant/model.pth (torch, 77263 bytes, 42 tensors)

token.weight f4 [109, 16]
000000 fc 9d 54 bc 21 6c 74 3d 21 3b bd bb 10 3f 8c bd
       -0.01297712 0.059673432 -0.005774871 -0.06847966
000010 25 aa ca 3c c3 38 63 3b 2e db 52 3c 91 18 a9 3b
       0.024739334 0.0034671284 0.012869639 0.0051603992
000020 2e de 66 bb 62 66 0e 3c fd 74 01 bc c9 05 b4 bc
       -0.0035227644 0.008691402 -0.007901427 -0.021975415
000030 f5 a3 f1 3c a6 25 89 3c af 25 14 bc bc 0f 53 3c
       0.029497126 0.016741585 -0.009042188 0.012882169
000040 69 6b a6 3c 5a 6d d2 3b 9e b3 33 bc 97 be 44 bc
       0.020314889 0.006421727 -0.010968117 -0.012008331
000050 a9 56 d8 3b ac 17 9e bc c8 cf 3a 3b a9 29 36 bd
       0.0066021276 -0.019298397 0.0028505195 -0.044473324
000060 1f 13 10 3d ba 1d bd 3b 52 2b dd bc d7 80 77 3c
       0.035174485 0.005771366 -0.026998196 0.015106401
000070 ac 8f 72 3c a8 ec c8 3a 21 1c b8 bc d8 14 6d bc
       0.014804762 0.0015329318 -0.02247435 -0.014470302
000080 98 20 02 bd 66 bf 45 3b 90 6c 27 3d 13 27 75 bb
       -0.031769365 0.0030173897 0.040875018 -0.0037407323
000090 0a 72 1d bd 62 68 27 bc ed d2 09 bd b5 16 09 3c
       -0.038438834 -0.010217758 -0.03364842 0.00836723
0000a0 ed 98 fb bc 4c 34 03 bd 45 f9 d8 3c 62 bb aa 3a
       -0.03071257 -0.032032296 0.026486048 0.0013025815
0000b0 8e fb a6 3c bd 89 33 bd ca b5 13 3d e6 73 0c 3d
       0.020383622 -0.04383253 0.03606204 0.034290217
0000c0 84 e2 80 bb 35 52 5d bb b3 5d f3 3a 32 38 20 bc
       -0.0039332528 -0.0033770923 0.0018567353 -0.009779023
0000d0 44 d5 9b 3b 4f 49 c6 3b a3 6c 96 3c ee 3a 95 bc
       0.004755648 0.0060512195 0.018362349 -0.018216576
0000e0 05 72 64 3b 3e 20 ca bb db 29 d4 bb 32 ac 0a b9
       0.0034858 -0.0061683943 -0.006474716 -0.00013224853
0000f0 b8 f4 66 3c 38 eb b3 3b 4c 89 85 bc 4b 47 8d 3c
       0.014096431 0.0054906867 -0.01630082 0.01724591
000100 c4 e8 a6 bb f9 24 ce bc bf c3 4e 3b 18 ea 2d 3c
       -0.005093666 -0.025164114 0.003154978 0.010614894
000110 b7 e0 1a 3c 07 56 e1 b9 5f 56 07 bc 09 8b 87 3c
       0.00945299 -0.0004297944 -0.008260339 0.01654579
000120 3c a6 f2 ba fb 78 dc 3b 57 56 48 3c 09 f6 58 bb
       -0.0018512676 0.006728289 0.012227616 -0.0033105633
000130 44 6b c1 bb 98 ac 7b bb 22 56 a5 3b e4 f4 50 3c
       -0.0059026796 -0.0038402434 0.005045668 0.012753699
000140 7a b9 a7 3b e8 a6 2e 3a fa fc 65 bb cf 21 65 bb
       0.005118546 0.0006662444 -0.0035093413 -0.0034962778
000150 19 a7 b0 3b 7e f0 58 bc 1d da b8 bb 58 6c b3 bb
       0.0053910133 -0.013240932 -0.0056412355 -0.005475562
000160 44 d0 05 3c 8e 55 48 bb da c4 78 39 3c e6 43 3b
       0.00816733 -0.0030568573 0.00023724456 0.002989187
000170 a2 cd 8d 3b e0 31 8c 38 e4 12 85 bb 49 0c 76 bc
       0.004327492 6.68501e-05 -0.00406109 -0.015017577
000180 a2 1f 18 bc 62 11 56 bc c4 b1 6f 3c 04 4d 8c 3c
       -0.009284886 -0.013065668 0.014629785 0.017126568
000190 10 1b 0d bc 9d c7 2a bc 1f 26 05 bb d5 10 c9 bb
       -0.008612409 -0.010423568 -0.0020316911 -0.0061360397
0001a0 0e 79 24 bc 21 61 a8 bb ac f4 f6 3a 40 41 2c 3c
       -0.010038627 -0.005138532 0.0018841228 0.010513604
0001b0 1e 94 75 3c be 63 bf 3b e0 d3 64 bb 13 f1 0e 3c
       0.014988927 0.0058407476 -0.0034916326 0.008724469
0001c0 53 b6 76 3c da a2 b2 3b fe 55 a5 bc 0a 0e 0d bc
       0.015058118 0.0054515423 -0.020182606 -0.008609304
0001d0 fd 03 fa 3b 51 94 0a bc 62 b3 05 bc 2f 50 61 3b
       0.00762987 -0.008458213 -0.008160444 0.0034380069
0001e0 e3 76 48 3b 8a 7b e0 3b 25 cd 86 bc 7e 97 0a 3c
       0.003058844 0.0068506645 -0.016455242 0.00845897
0001f0 e0 da f9 ba d9 5d 27 3c aa 33 08 bb 96 e6 8a ba
       -0.0019062422 0.010215246 -0.0020782747 -0.0010597284
000200 78 aa a6 bc 39 2a c5 3c e7 6e dc b9 b7 31 d2 bc
       -0.020344958 0.024067985 -0.000420443 -0.025658472
000210 8e f1 87 3c f1 19 0b 3b c4 2d 07 3b ac 32 95 3b
       0.016594674 0.002122518 0.0020626644 0.0045531597
000220 6f 30 2e 3b 9b e5 5e 3c 5b 8b 89 bc 85 17 0b bc
       0.0026579162 0.013604547 -0.016790083 -0.008489494
000230 c1 37 aa 3c 37 f3 db 3c 53 cb f3 bc 99 74 1e 3c
       0.020778539 0.026849372 -0.029760038 0.009671354
000240 4f 63 6d bc 42 5f 84 3a 79 84 33 3d 92 4c 43 bb
       -0.014489009 0.001009919 0.043827508 -0.0029800278
000250 91 85 86 bc 29 80 b8 bc e5 60 ca bc 8d cf 57 3c
       -0.016421111 -0.022522049 -0.024704406 0.013172043
000260 1f e6 70 bc 4c f6 0d bd 6e c5 54 3c 81 1d 8a ba
       -0.014703303 -0.034658715 0.012986524 -0.0010537357
000270 c1 fa c0 3b 5c c9 13 bd cf 2e ad 3c f8 82 91 3c
       0.005889267 -0.036080703 0.021140484 0.017762646
000280 29 9b 82 3b ca 6a ae ba a4 f2 2c b9 2a 81 75 3c
       0.0039857817 -0.0013306972 -0.00016493589 0.014984408
000290 8d 97 b6 39 08 1c e6 bb b3 b2 8f 3c 8d 6f 9c bc
       0.0003482666 -0.0070223846 0.017541265 -0.01909616
0002a0 22 18 d1 3b dd 9a 1f ba e1 1a 3b bc 06 51 03 bc
       0.0063810507 -0.0006088445 -0.011419983 -0.008014923
0002b0 5e 17 97 3b a3 d0 9c bb 48 aa 64 bb 2d 5e eb 3b
       0.00461094 -0.0047856136 -0.0034891535 0.0071828575
0002c0 c4 44 82 b8 f8 63 79 ba 37 06 41 3b 1c c9 e1 3b
       -6.211692e-05 -0.00095134927 0.0029453167 0.006890429
0002d0 4c 39 0d bb 14 6c 01 bc 0b b2 23 bc d7 68 94 bb
       -0.0021549044 -0.007899303 -0.009991179 -0.0045290994
0002e0 40 92 60 bb 43 96 7a 3c 46 71 96 3b 96 37 19 bc
       -0.003426686 0.015294614 0.00459114 -0.009351632
0002f0 92 43 7f bc f1 20 22 bc ad 87 84 bb b1 3f 3d bc
       -0.015580075 -0.009895549 -0.004044494 -0.01155083
000300 e6 32 e0 39 28 f9 1f bc 0c 84 06 3c b2 97 a7 3c
       0.00042762532 -0.009763993 0.008210193 0.020458076
000310 36 21 b0 bc 93 87 38 bc b9 52 41 bc be 6e 98 3a
       -0.021500211 -0.011262792 -0.011799508 0.0011629683
000320 b3 7e cf bb ea e2 8c 3b 04 d8 c4 3b 63 52 39 b9
       -0.0063322424 0.004299511 0.0060071964 -0.00017673666
000330 ab 1a 4c 3c 49 30 bb 3b 77 6f 5c 3c 77 83 cf bb
       0.01245753 0.005712543 0.01345431 -0.0063328105
000340 f0 41 d7 bb 4f 02 3e 3c ff 06 dc 3b e9 b7 2e bc
       -0.0065691397 0.01159723 0.006714701 -0.010663965
000350 92 bd a3 bb e7 17 86 bb 06 34 52 3b e2 36 37 bc
       -0.004996964 -0.004092205 0.0032074465 -0.011182519
000360 d7 53 a0 3c 50 af fc 3b d8 aa 27 bc d1 59 f5 bb
       0.019571228 0.0077113286 -0.010233603 -0.0074875136
000370 c9 5c 81 3c 9b 4b 55 3c b9 5b 9d bc ef 17 87 3b
       0.015791314 0.013018514 -0.019208776 0.004122726
000380 b4 c6 00 bd a2 c5 54 bc b8 8a f6 3c 00 98 f5 bb
       -0.031439498 -0.012986572 0.030095443 -0.0074949265
000390 78 0e be bc 25 38 19 bd 9c 2c 0c bd ec d7 9b 3c
       -0.023200259 -0.03740706 -0.03422223 0.019023858
0003a0 fc b2 4f bc e1 ad bf bc 46 08 ac 3c de c5 21 3c
       -0.012676951 -0.023398342 0.021000039 0.009873835
0003b0 44 c2 d9 3c 2b 52 cd bc ec 48 e4 3c 36 49 97 3c
       0.02658189 -0.025063595 0.027866803 0.018467527
0003c0 0a 93 41 3c 0a 67 8e ba bf 15 2f 3b 91 25 4b bc
       0.011814842 -0.0010864448 0.0026715843 -0.012399093
0003d0 1f 60 9a 3b 0f da 18 3b 24 67 05 ba 56 74 fb 3b
       0.0047111656 0.0023323332 -0.00050889165 0.0076737804
0003e0 f3 b9 04 3b 09 76 97 bb e3 84 46 bb 63 6a 06 3c
       0.0020252436 -0.004622225 -0.003029161 0.0082040755
0003f0 e0 1a 4c bc e4 38 87 bb 6b 8c c6 3b 5d ea e9 3b
       -0.012457579 -0.004126655 0.0060592196 0.007138534

positional_embeddings.weight f4 [4, 16]
000000 3b 1d 87 3c 5a f7 08 3c 64 a8 58 3c 0f 24 30 bb
       0.01649343 0.008359754 0.013223741 -0.0026876961
000010 ed 58 97 bb 60 6e ca 39 d7 02 aa bb 30 00 07 bc
       -0.004618755 0.00038610678 -0.005188327 -0.008239791
000020 58 c7 86 3c 1f 37 bb bb d9 b9 4b bc e3 e5 43 3c
       0.016452476 -0.005713358 -0.012434446 0.011956665
000030 b0 87 c9 bb e9 84 9f bb e8 1d 1e 3c ba 1f b1 bc
       -0.0061502084 -0.004868139 0.009650685 -0.021621574
000040 7a e2 76 3c 80 49 38 3b e4 2a 03 3c ef 13 cd bb
       0.015068645 0.0028119981 0.008005831 -0.00625848
000050 cf 6b 2f bb ab 10 eb ba 51 3b 95 ba e4 61 f3 bb
       -0.002676714 -0.0017934045 -0.0011385476 -0.007427441
000060 a8 eb fa 3b bf 62 65 bb 82 55 14 bc cb 3a 3d 3c
       0.007657487 -0.0035001484 -0.00905359 0.011549662
000070 25 b8 05 bc b4 53 a0 bb dd 9d 2d 3b 49 55 b2 bb
       -0.008161579 -0.0048927907 0.00264918 -0.0054422957
000080 76 85 49 3c c4 57 2d 3c bd 59 12 3c f7 fb 8d ba
       0.012299886 0.010580007 0.008932528 -0.0010832538
000090 78 db 33 ba b4 c3 cd ba 28 36 21 bb c3 26 cc bb
       -0.00068610115 -0.0015698583 -0.002459893 -0.0062302067
0000a0 68 c3 e7 3b 3b 8b 12 bb 71 b3 6c bb c4 00 06 3c
       0.007072855 -0.002236082 -0.0036117698 0.0081788935
0000b0 c1 db 72 bb 10 79 20 bc 95 43 98 3b 0b 72 f7 bb
       -0.0037057253 -0.009794489 0.0046467283 -0.007551437
0000c0 c5 ef 29 3c e5 ef c4 3b cc 6a df 3b 77 02 68 bb
       0.010372107 0.006010043 0.006818151 -0.003540186
0000d0 63 58 55 bb 43 cd 65 bb d2 4c 10 bb f9 45 ac bb
       -0.0032553903 -0.0035064972 -0.0022018445 -0.005257365
0000e0 5c d9 bf 3b ba 1b 8c bb 9b 5e 8c bb 7e 85 e8 3b
       0.0058547687 -0.004275766 -0.004283739 0.0070959916
0000f0 54 d1 51 bb ea 5d ac bb da 8a 8c 3b 84 e9 9f bb
       -0.0032015638 -0.005260219 0.0042890133 -0.004880132

blocks.0.attention.tril f4 [4, 4]
000000 00 00 80 3f 00 00 00 00 00 00 00 00 00 00 00 00
       1.0 0.0 0.0 0.0
000010 00 00 80 3f 00 00 80 3f 00 00 00 00 00 00 00 00
       1.0 1.0 0.0 0.0
000020 00 00 80 3f 00 00 80 3f 00 00 80 3f 00 00 00 00
       1.0 1.0 1.0 0.0
000030 00 00 80 3f 00 00 80 3f 00 00 80 3f 00 00 80 3f
       1.0 1.0 1.0 1.0

blocks.0.attention.atten.weight f4 [48, 16]
000000 8f d9 a2 bd ef bf 8f bc f0 d1 a3 bd 45 7c 07 3b
       -0.07951652 -0.017547576 -0.07999027 0.0020673436
000010 8d 3b ca 3b 9d 3e 6b 3c 86 40 69 3d 33 24 a6 3d
       0.00617165 0.01435819 0.0569463 0.08112373
000020 f7 4f 6e bd 1d 73 3d 3c 8a 8f 44 3d a5 78 33 bd
       -0.05818173 0.01156309 0.047988452 -0.043816227
000030 b0 a9 0e 3d 16 99 44 ba 23 4c 88 3c 6d dc 3d 3d
       0.034829795 -0.0007499618 0.016637867 0.046352793
000040 63 8e 83 3d ef cb c5 3c bb fb b4 3d c0 83 c8 bb
       0.064236425 0.024145095 0.08837076 -0.0061192214
000050 ba 5f b8 bc 58 33 92 3c f6 29 75 bd 9b 1a c1 bd
       -0.022506583 0.017846748 -0.05985447 -0.09428903
000060 83 35 25 3d 75 0f ae bb 51 7e 6b bd fe 59 70 3d
       0.040334236 -0.005311901 -0.05749351 0.058679573
000070 1a a7 28 bd 9e dc db bb 05 ae 25 bb c7 99 3d bd
       -0.041174985 -0.006709649 -0.0025280726 -0.04628923
000080 4d 3c 7b bd 4a 5c c8 bc 4c df af bd 4e ea e5 3b
       -0.061336804 -0.02445807 -0.085875124 0.0070164567
000090 d5 83 18 3b d9 00 95 3b f2 08 42 3d 8e ab 59 3d
       0.0023271937 0.00454722 0.047371812 0.053142123
0000a0 54 a5 31 bd 49 b9 e5 bb b5 5a 43 3d 53 d0 1e bd
       -0.04337056 -0.007010613 0.047693927 -0.038772892
0000b0 2c 6d 3b 3d aa e2 f2 bb af 72 2d bb 1d 27 81 3d
       0.04575841 -0.0074122744 -0.0026466062 0.063062884
0000c0 b7 a4 9a 3d f9 08 2d 3d 85 96 ab 3d b2 b0 9d 39
       0.07550948 0.042244885 0.08378319 0.00030077022
0000d0 48 26 77 bc c0 54 cd bc 3e 97 6e bd 5b c4 a2 bd
       -0.015084811 -0.025064826 -0.058249705 -0.07947608
0000e0 98 e2 7c 3d 51 9f a8 bc 48 58 46 bd 72 47 45 3d
       0.061739534 -0.02058378 -0.048424035 0.04816384
0000f0 1f fc 0a bd ae 8d 28 bc 61 a8 95 bc 16 38 76 bd
       -0.033931848 -0.010287685 -0.018268766 -0.06011208
000100 22 86 f6 bc 00 5f f7 bb c6 5a 8d bc ef e1 07 3d
       -0.030093256 -0.0075491667 -0.017255198 0.03317445
000110 94 60 98 bc 40 cd 1a bd 53 ba b7 bc 5d 91 59 3c
       -0.01860074 -0.037793398 -0.022427713 0.013279286
000120 56 80 0f 3c a5 18 f1 3b 0b 1a b5 3c f6 38 2a 3d
       0.008758625 0.007357674 0.022107145 0.04155823
000130 a2 a0 4e 3c ce 5e 7c bc b0 83 37 3d 64 08 88 bb
       0.01261154 -0.015403463 0.04480332 -0.004151391
000140 04 2f 1a 3d 65 da a0 3c c2 72 9e 3c 3f 59 02 bd
       0.037642494 0.019635389 0.01934183 -0.031823393
000150 0f 03 b7 3c c1 cc 84 3c 80 b3 6c 3c 44 0c c4 bc
       0.022340326 0.016210916 0.014447093 -0.02393163
000160 3f ec 0f 3c bb e2 44 3a 71 01 3e bc 7b 6c 98 bc
       0.008784353 0.0007510592 -0.011597023 -0.018606415
000170 34 48 27 bc 4e e5 ca 3c 30 e4 cc bc 08 50 a2 bc
       -0.010210086 0.024767544 -0.025011152 -0.019813552
000180 25 63 1f bd 60 27 b9 bc 5c 0b e1 bc 2a ea 56 3c
       -0.03891291 -0.022601783 -0.027471237 0.0131173525
000190 60 7a 92 bc cd a2 96 bc 1a a6 e6 3b 59 a8 21 3d
       -0.017880619 -0.018388176 0.007038844 0.03946719
0001a0 8d 56 cb bc 81 a7 83 3b 81 74 0c 3d 52 cb d3 3c
       -0.024821544 0.0040177708 0.034290794 0.025853787
0001b0 3c a3 35 3c f9 f0 15 bd 75 02 20 3d 6b a8 30 3c
       0.011086281 -0.036606763 0.039064843 0.0107823415
0001c0 06 a3 6a 3c 6f a7 15 3c fc 4f cf bb f5 bb 87 bc
       0.014321094 0.009134158 -0.0063266736 -0.016569117
0001d0 7c 2a 11 3d c0 68 98 3d 88 27 b8 3c 8d 58 14 bc
       0.035440907 0.074418545 0.022479787 -0.009054315
0001e0 b1 a0 14 3a e3 a7 52 3c 3b b9 da bc 2a 89 0f bd
       0.0005669697 0.01285741 -0.026699653 -0.03504292
0001f0 9b 00 00 bd b9 18 95 3c 77 6b 72 bc 47 23 85 bb
       -0.031250577 0.018200265 -0.014796129 -0.0040630433
000200 5c 7a 4f 3c 00 99 9c 3a 7e f6 e1 3c 44 4d 81 3c
       0.01266345 0.0011947453 0.027583357 0.015783913
000210 c9 02 78 bc cf 5b 6c bc 5c 4e ac bc e2 0b 06 bc
       -0.015137383 -0.014426186 -0.021033458 -0.008181544
000220 1b ec 76 3c e0 eb 2b 3c 88 12 6e bc 6c c5 87 3c
       0.01507094 0.010493249 -0.014530785 0.01657363
000230 61 e4 3a bc 48 67 90 bb 30 3a 32 3a 4b e4 b9 bc
       -0.011406989 -0.0044068433 0.0006798832 -0.022691866
000240 b2 50 95 bc c6 ff de 3b 18 41 c9 3c 02 48 06 bc
       -0.018226955 0.006805393 0.024567172 -0.008195879
000250 51 4f 7e bc b0 ac ab bc c8 90 ed bb 2a d1 ac bc
       -0.01552184 -0.020956367 -0.0072499253 -0.021095831
000260 2b e0 1d bc be 3f a3 3c 94 46 17 bc 81 6b 8a bc
       -0.009635965 0.019927856 -0.009233136 -0.016896965
000270 8f 57 f0 3c 93 d6 d4 b8 92 c9 3b bc b1 85 ca 3b
       0.029338626 -0.00010148915 -0.011461632 0.006180488
000280 25 9d ff bb 4a 9b 63 bc 92 07 db bc 4b 26 1d 3c
       -0.0078007155 -0.013892004 -0.026737008 0.009591649
000290 f0 91 80 bc 3a 39 90 3c 39 c5 2c 3d cb 08 df 3c
       -0.015694588 0.017605413 0.042180274 0.027225873
0002a0 f0 82 84 bb 09 af 2d bc 06 d3 b5 3c 66 06 02 bd
       -0.0040439293 -0.010600814 0.02219535 -0.031744383
0002b0 2c ce 94 3c 3c 91 e8 bb 53 8f b2 ba e6 a3 83 3b
       0.018164717 -0.0070973914 -0.0013623036 0.004017341
0002c0 92 bc 45 3c 4b c4 c1 bb 44 e5 e4 bc a9 1d 7a 3b
       0.012068884 -0.0059132925 -0.027941354 0.0038164651
0002d0 c0 21 db ba 03 b1 f1 3c a9 47 cb 3b c7 df 8a ba
       -0.0016718432 0.029503351 0.006203611 -0.0010595255
0002e0 5b 6f 20 bc e1 b3 82 bc 29 4d 9d 3c 90 87 c9 37
       -0.009792174 -0.015954914 0.019201832 2.4024193e-05
0002f0 53 8c a2 bc 59 49 af bc 2a e3 2c bc 68 60 46 ba
       -0.019842302 -0.02139728 -0.010552207 -0.0007567466
000300 27 32 85 bd 75 cf 98 bd 9d 04 e9 bd 56 af 06 3c
       -0.065037064 -0.07461444 -0.11377833 0.008220514
000310 70 22 59 3d 95 47 ed 3d da 64 dd 3d 55 80 8a 3d
       0.053011358 0.11585919 0.108102515 0.06762759
000320 52 3c 6e bd 89 45 69 3d a1 4b 80 3c 6e c4 9d bd
       -0.058162995 0.05695108 0.015661063 -0.077034816
000330 3a cb de bc a7 14 77 3d fc bc 84 bc 3d ad 89 3d
       -0.027196515 0.06032243 -0.016203396 0.06722496
000340 39 74 a1 bd 99 56 86 bd aa 59 e5 bd c2 b6 d3 bb
       -0.07883496 -0.06559486 -0.11198743 -0.0064609954
000350 02 84 1d 3d b4 91 a2 3d 6e 4f cd 3d 22 de a3 3d
       0.03845597 0.07937947 0.10024916 0.08001353
000360 5b dc 97 bd 6e c2 49 3d f3 8b 14 3d 0c eb b9 bd
       -0.07415076 0.04925769 0.03626628 -0.09078035
000370 29 f9 e6 3a 1d b8 42 3d e9 e2 f0 bb bf ce b4 3d
       0.0017621863 0.047538865 -0.0073512685 0.08828496
000380 2e 4c 3f bd 6c 38 82 bc 5e 81 60 bd b8 05 91 3c
       -0.04670351 -0.015896045 -0.054810874 0.017702922
000390 08 1e 80 3b fe dd 83 bb 67 bd f3 3c 2f 88 b2 3d
       0.00390983 -0.0040242663 0.0297534 0.08717381
0003a0 45 57 11 bd c9 2d 62 bb e7 5b 74 3d bd 20 1f bd
       -0.035483617 -0.0034512153 0.059657957 -0.03884958
0003b0 55 ec e4 3c f8 28 d6 bc 5e 31 57 3c 6b 55 cb 3c
       0.027944723 -0.026142582 0.013134329 0.024821004
0003c0 4a 55 84 3d f4 44 97 3d 2c 77 e0 3d 06 92 4a 3c
       0.0646158 0.07386199 0.1096023 0.012363916
0003d0 b7 76 45 bd 21 55 00 be ca 94 af bd 2d f2 82 bd
       -0.04820892 -0.12532474 -0.08573301 -0.063938476
0003e0 06 f3 2f 3d be a7 8b bd 37 65 d7 bc 21 7e a9 3d
       0.042956375 -0.06819104 -0.02629338 0.0827601
0003f0 1c bb 2d 3d 08 85 2f bd 34 49 9b 3c 59 d6 6a bd
       0.04241477 -0.042851478 0.018955804 -0.057333324

blocks.0.attention.projection.weight f4 [16, 16]
000000 84 85 c0 3b 7a d6 8e 3c b2 0a 61 3c 31 72 25 bb
       0.0058752913 0.017436255 0.01373546 -0.0025245065
000010 ba d7 ce b8 bb 74 6b bc ea ef f4 3b 05 d4 00 3b
       -9.863028e-05 -0.014371092 0.007474889 0.0019657623
000020 98 ae ea bb 9a 7f 61 3c 63 64 d8 bc 29 12 86 3c
       -0.0071619265 0.013763333 -0.026415056 0.016366081
000030 42 8b ac bc 99 19 7b bc db af 01 bc 0e df 40 bc
       -0.021062497 -0.015325927 -0.007915462 -0.01177193
000040 84 90 22 bb c8 c2 de bb 0e 8b 87 bc 6a e0 d4 3b
       -0.0024805376 -0.006798122 -0.016545799 0.006496479
000050 40 2e 54 bc 72 fd 05 ba 5a b9 b1 bb 16 d2 f8 3b
       -0.01295048 -0.00051113137 -0.005423707 0.0075934036
000060 76 97 24 ba 8c 0a 14 bb 38 6e 6a 3b 13 0e 0e bc
       -0.0006278673 -0.0022589294 0.0035771262 -0.008670348
000070 f8 4b 43 ba b4 e9 96 3c 31 ef ac 3a 33 a3 d9 3b
       -0.000744998 0.018421985 0.0013193843 0.0066417693
000080 bb d1 da 39 db e6 2d 3c a5 6f 32 3c b1 49 09 bc
       0.00041736462 0.010614122 0.010890876 -0.008379386
000090 f9 71 14 bb 85 de cd 3b 4e 43 b3 3b d8 03 b9 37
       -0.002265094 0.00628263 0.00547067 2.2055508e-05
0000a0 86 2a d5 bb b9 4d bb 3a d0 70 1b bc 96 93 2d bc
       -0.0065053133 0.0014290131 -0.009487346 -0.010594269
0000b0 a0 68 e5 bb d1 f8 ad bb 40 ce 08 3b 89 0d fd 3b
       -0.0070009977 -0.0053092022 0.0020874888 0.007722561
0000c0 46 ec 2c bc 2b 6b ae bb 7e 27 06 bc 7e 82 91 3b
       -0.010554379 -0.005322834 -0.008188127 0.0044406047
0000d0 e5 87 2f bb 9d 59 8b 3a a2 b3 15 bc bf db 09 bc
       -0.002678388 0.0010631565 -0.009137066 -0.008414208
0000e0 ac 94 c9 ba 9a 73 e3 3a 7b 34 6c bc 3f 50 7b bb
       -0.0015379391 0.0017353178 -0.014416809 -0.003834739
0000f0 b5 71 1a b9 79 66 59 3c 57 d6 f6 3b aa 60 44 bb
       -0.00014728944 0.01326906 0.0075328755 -0.0029964843
000100 8a 0b 3c 3c 75 e5 a0 bb 56 4d b1 bb c0 93 a8 bb
       0.0114773605 -0.004910166 -0.0054108305 -0.0051445663
000110 87 78 84 3a 41 22 0e bc 24 76 79 3a 85 c6 32 bb
       0.0010106721 -0.008675159 0.00095162005 -0.0027278971
000120 8b 58 8b bc 07 c1 03 bc ba a5 fd 3b 2f 02 5a bc
       -0.017009994 -0.008041627 0.0077407034 -0.013306185
000130 68 95 15 bc 5b 3c 40 bc 14 68 4d bc fd 57 3e bb
       -0.0091298595 -0.01173314 -0.012537021 -0.0029044144
000140 d6 bf 91 3b 80 91 03 3b 1d 8c d8 3b 77 39 ff bb
       0.0044479175 0.0020075738 0.0066084997 -0.0077888328
000150 70 47 93 3a b8 a5 71 3a 1a e4 53 bb 3b 6e da bb
       0.00112365 0.00092181144 -0.0032332004 -0.0066659725
000160 68 f5 06 bc 64 83 7c 3c 3a 62 9a 3a cb 9f 82 3b
       -0.00823722 0.015412185 0.0011778541 0.003986334
000170 7f b3 27 3c e5 8a ad bb 68 de 37 3c 15 da 1a bc
       0.010235666 -0.0052960985 0.011222459 -0.009451409
000180 fa 70 21 3c 75 87 52 3c f6 79 8b 3c bc fa 1f bb
       0.009853596 0.012849678 0.017025929 -0.0024410924
000190 1c d2 05 bc 9c 12 04 3b 26 f8 ce 3b 5e ca 4c 3b
       -0.00816777 0.0020152694 0.0063162027 0.003124855
0001a0 1a de 56 3b d4 8d 0c bc 5a 56 e0 bb 22 84 38 ba
       0.0032786191 -0.008578736 -0.0068462314 -0.00070387323
0001b0 26 f3 87 bc 99 b5 2c bc 73 b1 29 bc 2e 61 5b bc
       -0.016595434 -0.010541343 -0.010357249 -0.013389869
0001c0 93 d4 4e 3c 24 f0 74 3a eb f2 12 3b 1e 8c 9e bb
       0.012623924 0.0009343645 0.0022422622 -0.0048384806
0001d0 a0 22 1f ba 68 ea 08 3c da ce 0c bc 9e 92 d2 3b
       -0.0006070528 0.008356668 -0.008594239 0.0064261695
0001e0 2f d0 96 bc 1d d1 63 bc fc ac d5 3b 6c dd 76 3b
       -0.018409817 -0.013904837 0.0065208655 0.0037668599
0001f0 53 f7 1b ba 88 b8 4e 3b 88 16 b6 bb df d3 c2 bb
       -0.0005949635 0.0031543095 -0.005556885 -0.005945667
000200 a9 ae 87 bb a7 4e d3 3a 03 3c a6 3b fd a9 ed 3b
       -0.004140694 0.0016121463 0.005073072 0.00725293
000210 87 ac 6e bb 2b b4 54 bb 5f 35 66 3c 97 44 50 3c
       -0.0036418752 -0.0032456021 0.014050811 0.012711666
000220 c7 e0 2e bc 96 ba 5d 3b fc 15 69 b9 ab 7e 31 bc
       -0.010673708 0.0033833138 -0.00022228801 -0.010833423
000230 98 51 9f 3b 05 44 f9 3b 12 94 37 bc 6d c1 e0 bb
       0.0048620217 0.0076069855 -0.011204736 -0.0068589956
000240 58 90 a6 bb 12 57 01 bc ad 9b 64 3c ee 18 03 3a
       -0.005083125 -0.007894294 0.013953132 0.0005000968
000250 c0 9b 85 3b 1d 8e 50 ba ae 0b 5e 3c c6 f6 5b 3c
       0.0040774047 -0.0007955747 0.013552589 0.013425535
000260 ab 4d 46 bc 30 5e 36 3c 48 5b 9c bc 72 66 a0 3c
       -0.012103478 0.0111308545 -0.019086495 0.0195801
000270 02 08 00 bc 00 36 5f bc 99 a9 24 3a 4d 87 ed 3a
       -0.007814409 -0.013623714 0.00062813755 0.0018121988
000280 1f 26 9e 3a 4c 58 7c bb f2 fa 9c bb 8e 00 3e 3c
       0.0012065804 -0.0038504777 -0.004790657 0.011596812
000290 5f b6 f5 bb 4d 96 ab 39 02 42 fe bb 7f 25 b7 ba
       -0.007498547 0.00032727644 -0.0077593336 -0.0013972967
0002a0 05 ce 18 3c 17 39 4d bb 7a 36 5c bb 45 56 c8 ba
       0.009326463 -0.0031314546 -0.0033601806 -0.0015284499
0002b0 9a 66 c6 3c 18 40 0d 3c 19 e7 60 3b 56 ee e6 3b
       0.024218846 0.008621238 0.0034317432 0.007047455
0002c0 01 72 2d bb d0 e6 1a b9 e6 57 08 ba 6d a5 c7 3b
       -0.0026465657 -0.00014772569 -0.0005201086 0.0060927183
0002d0 04 19 b2 ba 3c df 88 3b 28 b1 5f b9 41 c6 16 3c
       -0.0013587778 0.0041770022 -0.00021332933 0.009202541
0002e0 ed 11 58 3c b8 97 2d bc ca 7d 95 39 33 39 e3 3b
       0.013187868 -0.010595255 0.00028513215 0.006934309
0002f0 02 8e b1 3a b2 85 1c bb b9 c5 fa 3a 52 0a 1b bb
       0.001354635 -0.00238834 0.0019132412 -0.0023657274
000300 6b b3 f0 bb 0b ba 87 3b d0 16 c5 bb 28 75 4c 3c
       -0.007345607 0.004142051 -0.0060146824 0.012479104
000310 d0 de 6b bb 22 fb 28 3c 72 1b d0 bb f1 d4 82 3b
       -0.003599096 0.010313781 -0.006350928 0.0039926698
000320 f3 4e 6c 3b 84 66 8b bc c6 e6 87 3c ec 60 6a bc
       0.00360578 -0.017016657 0.016589534 -0.014305335
000330 74 8a 5e 3c 60 f7 98 3b 45 89 6d 3c 91 57 19 3c
       0.0135828145 0.0046681613 0.01449806 0.009359256
000340 4d 81 90 3b f5 b9 14 3c f3 2b 71 3c 27 29 89 bc
       0.004409945 0.009077539 0.014719951 -0.016743256
000350 01 be c6 3b cc 27 1d bc 6e 25 05 3c 80 43 0e 3b
       0.0060651307 -0.009592008 0.0081266 0.0021707714
000360 9b 5d 81 bc 28 25 26 3c 25 e5 04 3c 70 8d 12 3c
       -0.015791705 0.010140695 0.008111273 0.008944854
000370 bd c0 03 bd f9 d8 30 bc e9 8c 24 bc b7 61 69 bc
       -0.03216623 -0.010793918 -0.010043361 -0.014244488
000380 82 94 63 bc 19 40 d6 ba b0 40 4f bb a0 a7 67 3b
       -0.0138903875 -0.0016346007 -0.003162425 0.0035347715
000390 2f 96 bd 3b fe 8a b1 39 59 58 c7 3b 42 30 4b 3a
       0.0057857255 0.00033863628 0.00608353 0.00077510264
0003a0 8b 09 02 3c 08 ce 60 3a ee 26 1a bc 71 d5 76 3c
       0.0079368455 0.0008575623 -0.009408696 0.015065537
0003b0 ae e4 fe bb 0a f4 70 3c ef a2 fb 3c 18 be 48 3b
       -0.0077787256 0.014706621 0.030717341 0.0030630883
0003c0 12 88 3b bb f9 a7 c4 bb 8c cd 09 3b b8 57 08 bc
       -0.002861504 -0.006001469 0.0021027057 -0.008321695
0003d0 d3 dd 78 bb 8f 27 ce bb 7f 60 da 3b 6a 70 43 3b
       -0.0037974014 -0.006291337 0.0066643353 0.0029821643
0003e0 78 8f 5d 3c ba 2b 4b bc c8 84 31 bc 36 c2 a9 3b
       0.013522975 -0.012400562 -0.01083488 0.0051806225
0003f0 78 b3 b9 3b 0f 38 a1 b9 fe 82 fb ba 9d 3a 4b 3b
       0.0056671463 -0.0003075008 -0.0019188819 0.0031010278

blocks.0.feed_forward.net.0.weight f4 [64, 16]
000000 ca 82 0a 3c c5 2f 2d bc 8e 57 a3 bb 42 22 4e 3c
       0.008454034 -0.010570471 -0.0049848026 0.01258141
000010 8f f9 8f bb 56 e5 9f bc 59 e6 ac 3b e3 e6 7c bb
       -0.0043937634 -0.019518536 0.005276483 -0.0038589768
000020 90 0a df bb af a7 2b bc f8 be 6f 3b f9 52 d7 3b
       -0.006806679 -0.010476991 0.0036582332 0.0065711704
000030 13 31 de bb b4 4e ca 3a 89 60 0b bc 2a 06 c2 39
       -0.0067807524 0.0015434832 -0.0085069025 0.00037007156
000040 3c ab ca 3b ae 5e 5f bb 29 73 bf 3b ac cf 18 3c
       0.0061849635 -0.0034083533 0.0058425856 0.009326857
000050 55 b0 de 3b 18 c2 59 3a ea f1 27 bb 44 94 e1 3b
       0.0067959228 0.0008306815 -0.002562637 0.0068841297
000060 9c d6 38 3c 9e 3f 6e bc 55 54 21 3c f4 d1 e5 3b
       0.011281636 -0.014541535 0.0098467665 0.0070135538
000070 b6 1b 97 bb 24 b3 51 bc 9c 4a 0f 3b 7a 17 93 3b
       -0.0046114577 -0.012799058 0.002186454 0.0044888826
000080 0a de 37 3b 05 6f 18 3b f4 39 a5 3b ca 46 da bc
       0.002805593 0.0023259532 0.005042309 -0.026645083
000090 b0 8f 84 3b 35 cf bb 3c df 2c 06 3c f7 b1 2a bc
       0.004045449 0.022925952 0.008189409 -0.010418407
0000a0 bb 0c 59 bb 5b 06 f4 ba 8c aa 41 bc 10 e5 46 37
       -0.003311916 -0.0018617617 -0.011820447 1.1855052e-05
0000b0 fc 8b a2 3b 41 18 99 3b e2 b3 82 3b a4 05 03 3c
       0.004960535 0.0046720807 0.003988729 0.00799695
0000c0 3c 28 14 bc 66 6d b9 3b 5d c2 a9 ba ff 30 2a bc
       -0.009042796 0.0056587933 -0.0012951602 -0.010387658
0000d0 94 5f 90 3b b2 4f 29 3c 5d f7 8f 3c 6a fe f1 ba
       0.004405925 0.010333942 0.017574007 -0.0018462662
0000e0 6c 7c e5 b9 33 81 2c 3c ee 7d d4 bb 8e bc aa bb
       -0.00043770985 0.01052885 -0.0064847386 -0.0052104658
0000f0 42 10 21 3b f0 cf 1a 3b 13 6d 50 bc 17 95 ac 3b
       0.002457634 0.0023622476 -0.012721318 0.0052667963
000100 ae 9d 87 3b 11 d2 24 bb 02 e8 c4 bb b8 22 dd 39
       0.00413867 -0.0025149623 -0.006009103 0.00042178272
000110 7a 68 92 3b bc e2 0f 3a 07 4c 88 bb 02 94 27 bb
       0.004468021 0.0005488803 -0.004159454 -0.0025570397
000120 44 b4 8e 3b 8c c4 08 bc 4c 57 7b ba d3 11 c2 3a
       0.0043549854 -0.008347642 -0.00095878984 0.0014806337
000130 30 98 43 bc 55 e3 63 bc 99 ee 6e 3c f3 22 45 3c
       -0.01193814 -0.013909181 0.014583253 0.012032258
000140 45 44 f9 3a 96 f3 c6 bb 19 ca 0e 3c a5 fb 7d bb
       0.0019017538 -0.006071518 0.008715176 -0.0038754728
000150 a8 29 a0 3c d2 73 3b 3c 02 ce 5a 3a 9c 94 dd bb
       0.019551113 0.011441188 0.00083467376 -0.0067621004
000160 93 fc 1c 3b 01 a6 39 bc 45 3c 87 3b c2 e1 56 3b
       0.0023954257 -0.011331082 0.0041270577 0.003278837
000170 7a 3b 92 3c 62 d8 37 3c 4b a8 04 3c 52 7e 1b bc
       0.017850626 0.011221023 0.008096765 -0.009490566
000180 ec 52 2f 3b 55 37 9d 3b 2b d5 51 bc cb bd 58 bc
       0.0026752306 0.004797856 -0.012807171 -0.013228844
000190 58 b1 4d bc 00 5f 06 bc fc 4b e7 b9 f3 f2 70 bc
       -0.012554489 -0.008201361 -0.00044116366 -0.014706361
0001a0 f8 f5 7d 3b 2a cc 5a 3c a5 66 b8 3b 10 a1 6b 3b
       0.0038751345 0.013354341 0.0056274706 0.0035954155
0001b0 0d 97 a0 3a 97 de bc ba cf ab c1 39 87 71 db 3b
       0.0012252048 -0.0014409599 0.00036939836 0.006696883
0001c0 53 54 b9 bb e5 dd 1b bb eb 3f 89 3b 3b f7 75 bc
       -0.005655804 -0.0023783382 0.004188528 -0.015012558
0001d0 40 22 b3 ba db 02 1d 3c 67 65 63 3a ee 1b ec 3a
       -0.0013666824 0.0095832 0.0008674473 0.0018013695
0001e0 c7 de b2 bb 2e f3 5c 3a 1f 40 11 bc d5 2c 59 ba
       -0.005458686 0.00084285706 -0.008865385 -0.00082845736
0001f0 6c 40 dc 3a eb c8 d1 3b 6b cb d0 ba 9c b7 74 3a
       0.0016803867 0.006402125 -0.0015929764 0.0009335221
000200 d2 22 8c bb c6 9c 8d 3b 72 af 09 3c f1 31 5f bc
       -0.004276612 0.0043216674 0.008403646 -0.013622747
000210 45 1c ac bb 44 32 71 3c 1e 7e 29 3c 8e ac 5f 39
       -0.0052523934 0.014721457 0.01034501 0.00021331219
000220 23 e4 06 3b 97 71 34 bb 15 a4 b9 bb de db 0d 3a
       0.0020582757 -0.0027533525 -0.005665312 0.0005411486
000230 59 c8 9e 3b 5f 64 fd 3b fc e3 ce ba 4d 49 be 3a
       0.0048456606 0.0077329124 -0.0015784497 0.0014517695
000240 62 a0 8c bb 76 bf 12 3c 9c bb 1a bb 30 2a 64 3b
       -0.00429158 0.008956781 -0.002361036 0.0034815185
000250 89 5d 98 bb 83 69 19 3c 25 43 01 bc a4 17 b6 3b
       -0.004649822 0.009363535 -0.007889544 0.0055570174
000260 04 88 70 39 ed 6d d1 3b 46 67 cc bb 2a 6d c5 3a
       0.00022938853 0.006391278 -0.006237897 0.0015062441
000270 81 f8 20 bc 8e c9 80 bb a9 6c 3d bb 9f 3c c9 3b
       -0.009824873 -0.003930277 -0.0028903878 0.00614126
000280 91 23 2b ba e0 5b a2 bb 2c ce bc b8 7c 36 33 3b
       -0.0006528432 -0.0049548 -9.002941e-05 0.0027345708
000290 67 90 a9 bb 5c b2 ff 3b e8 3f 55 3b 35 b3 8e 39
       -0.005174685 0.0078032445 0.0032539312 0.0002721787
0002a0 f0 14 dd 3a 1b 98 5f b9 b1 53 ac 3b 13 5c 93 bb
       0.0016867202 -0.00021323601 0.005259 -0.00449706
0002b0 a0 ee 05 3b ad 7f 14 bc 62 bb 52 3b b0 b9 28 3c
       0.002043642 -0.009063643 0.0032155146 0.010298178
0002c0 e4 73 ec bb 0a da 45 3c 32 6c 15 bc 95 05 13 ba
       -0.0072159637 0.01207591 -0.009120034 -0.0005608437
0002d0 14 d8 81 bb 66 6e bc 39 91 46 3a bc d7 86 d1 bb
       -0.003962526 0.00035940408 -0.011369363 -0.006394248
0002e0 6a 94 40 bb 87 a2 10 3c 2b 6c 55 bb 84 53 ae bb
       -0.0029385337 0.008827812 -0.0032565694 -0.0053200144
0002f0 b1 e7 8c bc 70 0d ff 3b 67 e0 27 3b b7 69 b2 3b
       -0.017200323 0.0077835843 0.0025615932 0.005444731
000300 bf b3 20 bb f9 af 92 bb b9 be 85 bb d4 c1 d5 3b
       -0.00245212 -0.004476544 -0.004081574 0.0065233503
000310 e0 7e f7 ba 38 2d 7f 3c d1 13 01 3c a4 f7 4b bc
       -0.0018882416 0.015574746 0.00787826 -0.012449179
000320 00 5e 0c 3c e4 23 ca 3a 27 30 37 3b af 41 03 3c
       0.008567333 0.0015422073 0.0027952285 0.008011266
000330 3c d7 50 3b f6 ea c2 bc 8a a7 43 3b f7 b9 6d ba
       0.003186657 -0.023793679 0.00298545 -0.00090685434
000340 83 ce e9 ba fd f1 f3 bb 83 35 0c 3b 7f 3d 9e bb
       -0.0017838035 -0.0074446187 0.00213942 -0.0048291082
000350 aa a1 35 bc 05 3f 8a bc c6 0b 39 3a 73 96 d1 3b
       -0.011085907 -0.016875753 0.00070589443 0.006396109
000360 69 20 97 3b 79 4d cf bb ad 46 c9 3b ad 15 f5 3b
       0.004612018 -0.006326374 0.0061424584 0.0074793906
000370 08 30 68 bb 5c d7 01 3c e7 ee df 3b 8e 8f 31 3c
       -0.003542902 0.007924881 0.0068338993 0.010837449
000380 b2 24 59 3b d3 12 e6 bb 0e 12 eb 3b 4e 7b 9a 3b
       0.0033133444 -0.007021287 0.007173783 0.004714406
000390 d1 d5 f6 3b 2b 57 80 3c a1 7c 35 3b 0c 22 a1 bb
       0.007532813 0.015666565 0.0027692693 -0.004917389
0003a0 ad 0f 7a bc e1 c5 a1 bb 31 e9 ad 39 35 58 83 ba
       -0.015262526 -0.004936919 0.00033170872 -0.0010020795
0003b0 46 4b 03 bc 91 ab 9f bb 29 0a a3 3a 35 f3 f7 3b
       -0.008013552 -0.004872747 0.0012438941 0.0075668343
0003c0 e6 12 9b ba b0 0b ea 3b c0 50 2f bc a4 75 ca 3c
       -0.0011831194 0.0071425065 -0.010700405 0.024714299
0003d0 04 a6 92 3b 37 67 4f 3c 5e 00 e3 3a 88 db 2c bb
       0.004475357 0.012658886 0.0017318835 -0.0026375968
0003e0 12 af e9 3b b9 c6 ae bb 0c ff 38 3c 08 56 9d 3b
       0.0071314657 -0.005333748 0.011291277 0.0048015155
0003f0 d8 e0 92 bc 44 ab 38 bc 22 1e 6a 3a fb 26 51 bb
       -0.01792948 -0.011271302 0.0008930882 -0.0031914103

blocks.0.feed_forward.net.1.weight f4 [16, 64]
000000 9e 10 6c bb 7d 4a e2 3a f5 02 5a 3c bd e8 ec 3b
       -0.0036020647 0.0017264631 0.013306369 0.007229893
000010 04 62 9b 3b be 54 fe 3a 32 f0 14 3b d8 1c 95 ba
       0.004741909 0.0019403917 0.0022726175 -0.0011376394
000020 17 68 2c 3c b5 12 39 3b af b7 87 bb 4a 12 3b bb
       0.010522864 0.002823991 -0.00414177 -0.0028544837
000030 de a2 64 ba 45 0b 50 bc 9c 24 a5 bb 8c df db 39
       -0.0008721779 -0.012697999 -0.0050397646 0.0004193749
000040 22 2b 27 bc 85 d2 61 3c f6 51 38 3c 72 a2 f1 bb
       -0.010203155 0.013783102 0.01125001 -0.0073741013
000050 3b da 59 bc c1 e2 36 3c 97 15 f6 3a 05 a9 8e bb
       -0.013296659 0.011162461 0.0018774745 -0.004353645
000060 fc a7 17 3c 6a a9 0f ba 62 24 02 3c 75 72 2e bc
       0.009256359 -0.0005480262 0.007943245 -0.010647406
000070 43 db 9a b9 d0 05 10 3c bf 13 a3 bb a2 0d 1a 3c
       -0.00029536532 0.008790448 -0.004976719 0.009402664
000080 14 21 a1 ba e4 e6 58 3b 47 57 05 3c b1 29 e1 3c
       -0.0012293183 0.0033096606 0.008138484 0.0274857
000090 16 c7 7f 3b a1 31 25 b9 04 c6 96 3b 07 14 51 bb
       0.0039028577 -0.00015754114 0.004601242 -0.0031902806
0000a0 98 85 0e bc 34 c4 c9 3b 60 3c f2 ba b7 c7 6b 3c
       -0.008698843 0.0061574224 -0.0018481128 0.014390877
0000b0 8a fb 57 3c e4 ca de 3b bb 8d 16 3c 80 29 0d bc
       0.01318253 0.006799089 0.009189065 -0.008615851
0000c0 ca 29 85 ba 06 8e 0b 3b 57 0c 69 3c 5a af ae 3b
       -0.0010159549 0.002129437 0.014224133 0.005330962
0000d0 14 bf 04 bc fc 06 a2 3b d1 bb df 3b dd 47 8a bc
       -0.008102197 0.0049446803 0.0068278094 -0.01687997
0000e0 39 4b 0b bc 47 4f b1 bb a8 31 6b 3c 44 e3 98 3c
       -0.008501821 -0.005411062 0.014355101 0.018663056
0000f0 9c d3 03 bb 85 8a cc 3b 3a c8 00 bc 28 6f 44 3b
       -0.0020115143 0.0062420988 -0.007860238 0.002997348
000100 db 0b 83 bb b4 b6 8e 3a 43 2b f9 3b 89 af d5 3b
       -0.003999216 0.001088819 0.007604034 0.0065211696
000110 1e 88 ad bb 69 60 3e 3c 40 86 c5 3a 87 52 26 3b
       -0.0052957674 0.011619666 0.0015069917 0.002537878
000120 8c ed 90 3b 17 32 f3 bb 7e 18 db 3b 87 17 fd bb
       0.004422849 -0.0074217427 0.0066862693 -0.007723752
000130 93 43 11 bb df 09 a3 3c e9 9e 81 3b a0 ab aa bc
       -0.0022165522 0.019902168 0.003955711 -0.02083379
000140 e1 23 57 bb 08 a1 90 bb 84 c1 44 b9 28 91 af 39
       -0.0032827782 -0.0044137277 -0.00018764107 0.0003348675
000150 1a b5 1a 3c 81 4f 83 bb e7 91 42 3c 7a 1d f4 bb
       0.009442592 -0.0040072803 0.011875606 -0.007449803
000160 5a 52 4a 3b c0 c7 05 bb 26 74 1d bb ff e7 71 3c
       0.003087184 -0.002041325 -0.0024025529 0.014764785
000170 05 b3 9c ba 39 fa 44 3b 9f 40 e7 3a cf 31 8f bb
       -0.0011955207 0.003005637 0.001764316 -0.0043699513
000180 e6 30 19 3b 81 02 22 bb 6f 47 19 3c 46 a6 24 3b
       0.0023375093 -0.002472073 0.00935541 0.002512352
000190 40 3a b1 bb b2 28 dd 3b 27 f7 08 3b e0 33 9b 3b
       -0.0054085553 0.006749236 0.0020899267 0.0047364086
0001a0 16 b9 5b bc 71 74 1b 3b c6 a0 18 bc 9a 99 ab bb
       -0.013410827 0.0023720528 -0.009315675 -0.0052368166
0001b0 87 c8 12 bc 7a ee 03 bc 72 69 34 bb b0 a5 14 3c
       -0.008958942 -0.008052463 -0.002752867 0.009072706
0001c0 8a 12 65 38 b4 46 58 bb 07 a7 45 bc 3d 21 f5 3a
       5.461512e-05 -0.0033001127 -0.012063748 0.0018701922
0001d0 13 c0 60 3c ed e2 52 3c ab 43 3c bc 73 01 5f 3b
       0.013717669 0.012871486 -0.011490743 0.0034027963
0001e0 97 9b b7 bb 25 b0 21 bb c7 03 9b bb 93 7d f0 bb
       -0.0056032646 -0.002467164 -0.004730675 -0.0073391884
0001f0 90 b9 9f 3b 99 ca 46 3b 2c 61 43 bb 1f 99 d1 bb
       0.0048744157 0.003033316 -0.0029812558 -0.0063964273
000200 8f 69 57 bb dc 42 cc ba 09 9e 94 bb 0d a5 98 3a
       -0.0032869314 -0.001558389 -0.004535441 0.0011645869
000210 5d a5 4b 3c 07 05 00 bb f8 6a 6f bb ed e5 75 ba
       0.012429562 -0.0019534247 -0.0036532264 -0.000938027
000220 b0 bf 51 bb 80 1a 5c 3c c6 6c a2 3a 78 32 10 3c
       -0.0032005124 0.0134340525 0.0012392036 0.008801095
000230 76 db 80 38 fa 06 2b 3c ad 75 9f bb b4 47 3e ba
       6.1443934e-05 0.010438675 -0.004866323 -0.00072586094
000240 a1 c4 96 bb 8c a8 27 3b 44 ef a1 3b 8b 65 2f bb
       -0.0046010767 0.002558264 0.0049418528 -0.0026763405
000250 8f 9c 15 3b 8e 24 87 3b 96 d2 34 3c ec d1 9d ba
       0.0022828912 0.0041242307 0.011036536 -0.0012040711
000260 6c 71 26 3b ef a8 02 b9 de 06 c3 b8 8d 2f 70 ba
       0.0025397195 -0.00012460699 -9.299604e-05 -0.0009162359
000270 6d 99 5a ba b4 68 02 bc b3 38 ab 3b ff 5d e5 3b
       -0.0008338902 -0.0079595335 0.005225265 0.0069997306
000280 33 ee 32 bc 86 fd f4 3b 0e 0f 0f 3c 54 5b 01 bc
       -0.010921049 0.0074765114 0.008731617 -0.0078953095
000290 33 20 55 bc 63 94 b6 bb ab 2c 1c 3a fd aa 7a 3b
       -0.013008165 -0.0055718883 0.0005957584 0.003824889
0002a0 99 e1 38 3b bb ea 39 ba 42 65 66 bb 0c 2c b3 3a
       0.0028210639 -0.00070921675 -0.003515557 0.0013669743
0002b0 72 5b 53 3b 52 52 09 3c b2 82 4b bc 6c c8 84 bb
       0.003225055 0.008381443 -0.012421297 -0.0040522125
0002c0 48 97 63 bc cf fd 13 bb c0 9f 67 bc 58 75 35 bb
       -0.013891049 -0.0022581702 -0.014137208 -0.002768835
0002d0 3c 8e bc ba 0b 6e c0 3b af a1 ac bb b2 99 45 3c
       -0.0014385651 0.005872493 -0.0052682976 0.01206057
0002e0 76 07 bd 3b 2e 13 ab bb b8 d5 7d bb c9 79 c8 bb
       0.0057687117 -0.0052207923 -0.0038732123 -0.0061180335
0002f0 8c 09 40 ba 8b 74 4b 3c e7 7e 01 bc f0 41 cf b8
       -0.00073256413 0.012417923 -0.007903791 -9.882811e-05
000300 b3 a8 1c bc 24 c1 85 3b 1f e2 89 ba ee e7 51 bb
       -0.009561705 0.004081862 -0.001051966 -0.003202911
000310 3a 68 0e bb 25 7f 8c 3b 26 a3 6f bb 0f fc a5 bb
       -0.0021729604 0.0042876177 -0.003656575 -0.005065448
000320 3b bf 02 3c be 4b 85 ba ca c9 9c 3b cf 3d 95 bb
       0.007980163 -0.0010169668 0.0047847973 -0.0045544873
000330 ef 59 16 3c a2 23 56 bb 9d cf 85 3a 72 89 aa 3b
       0.009176715 -0.0032675047 0.0010208968 0.005204373
000340 f5 74 00 bc c7 e0 cc ba f5 b9 aa 3a 94 16 54 3b
       -0.007840385 -0.0015630954 0.001302539 0.003236209
000350 f5 d5 a2 3b 02 68 3f bb 6f b9 e2 3b b0 f1 67 3c
       0.0049693533 -0.002920628 0.006919078 0.014156744
000360 a2 11 25 3b bf 2e d7 3a 57 5f 8f 3b 02 7c 97 3b
       0.0025187512 0.001641713 0.004375379 0.004622937
000370 c9 41 84 3a ab 1d e4 3b a3 4c 9e bb eb 2c 39 bb
       0.0010090406 0.0069615445 -0.004830913 -0.0028255533
000380 81 38 09 3c c6 0a a0 bb f7 85 a9 bb 24 b0 29 bb
       0.008375288 -0.004884097 -0.0051734406 -0.0025892342
000390 0f bb 3a 3b 71 81 e6 3a c1 e1 fa 3a 59 96 9a bb
       0.0028492843 0.0017586184 0.0019140766 -0.00471763
0003a0 1b 84 c0 3b 67 e8 d9 3b 28 8d 99 ba 56 2c ea bb
       0.005875123 0.006650019 -0.0011715041 -0.0071463985
0003b0 78 0a 90 bb 7c 97 79 bb f7 b5 3b 3b c1 87 4e ba
       -0.004395779 -0.0038084676 0.0028642395 -0.0007878505
0003c0 20 b4 06 b9 74 43 c9 bb 34 56 e3 3a d8 40 ee 3b
       -0.00012846338 -0.0061420742 0.0017344416 0.0072709136
0003d0 2e 0c 6e 3b 7d 3a 83 3b e9 b5 25 3c 57 fc 6b bb
       0.0036323178 0.004004775 0.010114172 -0.003600856
0003e0 5a e2 83 3b b0 3f b7 3b a4 df 92 bb 5d 7f e4 ba
       0.004024786 0.005592309 -0.0044822264 -0.0017432977
0003f0 5c 82 9e 3b c8 7f 9e bb e0 e1 2c 3b cc 6d 9f 36
       0.0048373174 -0.00483701 0.002637975 4.7513513e-06

blocks.0.layer_norm_1.weight f4 [16]
000000 db 72 7f 3f e8 c2 7f 3f 89 47 7e 3f db a6 7f 3f
       0.9978463 0.9990678 0.99327904 0.99863976
000010 6b 79 7a 3f eb 6e 7f 3f 21 51 7e 3f ed 29 81 3f
       0.9784152 0.9977862 0.9934254 1.009092
000020 2c 57 81 3f 7a 53 80 3f ee 6d 7f 3f 8d dc 7e 3f
       1.0104728 1.0025475 0.99777114 0.99555284
000030 8d 7f 80 3f f4 be 7c 3f d7 ef 7d 3f f9 24 7e 3f
       1.0038925 0.9872887 0.9919409 0.99275166

blocks.0.layer_norm_1.bias f4 [16]
000000 43 37 47 3a b8 71 4d 3c 9b 86 bd bb 21 32 69 bc
       0.0007599482 0.01253932 -0.0057838685 -0.014233143
000010 f1 37 1a 3c 56 ca 76 bb 26 01 6a 3c 81 bc 9d bb
       0.0094127515 -0.0037657223 0.0142825 -0.004813731
000020 f0 d6 6f 3c 75 4f a6 bb 6a 0c de bb 07 37 30 3c
       0.014638647 -0.00507539 -0.006776382 0.010755307
000030 35 d3 46 3b 30 a6 99 bc 38 c6 7a 3a 12 7e 41 39
       0.0030338292 -0.018756002 0.000956628 0.00018452879

blocks.0.layer_norm_2.weight f4 [16]
000000 9c 1d 7c 3f 22 c8 7d 3f d5 84 7b 3f 6c 2d 80 3f
       0.9848268 0.99133503 0.9824956 1.0013862
000010 ab 51 7a 3f 4a 42 80 3f 60 06 7c 3f c4 3b 7c 3f
       0.97780865 1.002023 0.9844723 0.98528695
000020 39 73 7d 3f 28 76 81 3f 11 ca 7d 3f 7d 7f 7d 3f
       0.9900394 1.0114183 0.99136454 0.99022657
000030 5a 63 7f 3f d9 36 80 3f 78 d6 7c 3f 2e 0a 7e 3f
       0.99760973 1.0016738 0.98764753 0.9923428

blocks.0.layer_norm_2.bias f4 [16]
000000 d9 19 bd bb 8c 69 4d 3b 98 99 60 b9 12 41 ee bb
       -0.0057709035 0.0031343428 -0.00021419523 -0.0072709406
000010 cd 0f b0 3b 34 63 f8 bb d9 19 80 3c dd 8a 94 3b
       0.0053729773 -0.0075801853 0.015637325 0.0045331554
000020 3b d4 15 bb 09 b4 88 3b 03 d4 7a 3a f4 2a fb bb
       -0.0022862095 0.0041718525 0.00095683354 -0.0076650325
000030 fe c7 25 3c cb f0 97 3b 58 e6 40 bc 22 2b 07 39
       0.010118483 0.004636859 -0.011773668 0.00012890671

blocks.1.attention.tril f4 [4, 4]
000000 00 00 80 3f 00 00 00 00 00 00 00 00 00 00 00 00
       1.0 0.0 0.0 0.0
000010 00 00 80 3f 00 00 80 3f 00 00 00 00 00 00 00 00
       1.0 1.0 0.0 0.0
000020 00 00 80 3f 00 00 80 3f 00 00 80 3f 00 00 00 00
       1.0 1.0 1.0 0.0
000030 00 00 80 3f 00 00 80 3f 00 00 80 3f 00 00 80 3f
       1.0 1.0 1.0 1.0

blocks.1.attention.atten.weight f4 [48, 16]
000000 07 9d 9e 3c 8e 79 24 bb 17 ec 0d 3d 8d 98 57 ba
       0.019361986 -0.0025096866 0.03464898 -0.0008224331
000010 cb 48 4a bc e2 2b 4d bc f2 00 f2 bb ab 15 00 bd
       -0.012346457 -0.0125226695 -0.0073853666 -0.031270664
000020 be 91 1f 3d 4f 4f 93 3c 39 6b d8 3a c2 85 79 3c
       0.03895735 0.017982153 0.0016511447 0.015229644
000030 6a ab 3e bc 16 d4 7f 3a ef 6c 24 3b 60 37 09 bd
       -0.011637548 0.00097590813 0.0025089344 -0.033500075
000040 19 2e 35 3d 38 d4 ce bb 4b 99 48 3d fb 5d 5d 3c
       0.044233415 -0.0063119195 0.048974317 0.013511176
000050 f6 83 d0 3a 1a 76 49 bc a3 01 1f bd 9e db 5f bd
       0.0015908468 -0.012296224 -0.03881992 -0.054652803
000060 40 09 23 3d d6 f7 99 3c 43 7c 06 bd 07 1b a2 3c
       0.039803743 0.018794935 -0.03283335 0.019788278
000070 00 61 b5 bc 00 ca f6 3a 4e 56 04 bc 97 8f 28 bd
       -0.02214098 0.0018828511 -0.008077217 -0.041152563
000080 c9 d3 2d bd cb f4 12 3b 73 52 81 bd 94 bf 3d bc
       -0.042438302 0.002242374 -0.06314554 -0.01158132
000090 06 00 a5 3b 6c 27 be ba 71 cc 02 3d 00 f9 43 3d
       0.005035403 -0.0014507598 0.03193325 0.047844887
0000a0 2a 46 28 bd 66 f4 d4 bc 61 51 d5 3c 03 dd 03 bd
       -0.04108254 -0.025995445 0.026039781 -0.032193195
0000b0 a1 ff ca 3c 13 aa 38 bc c5 a1 1b bb d2 87 07 3d
       0.024780096 -0.011271018 -0.0023747545 0.033088513
0000c0 ee a8 37 3d fe 74 6a bb 0b 39 68 3d 19 58 cb 3b
       0.04483884 -0.00357753 0.056695025 0.0062055704
0000d0 1d d7 24 bc 83 91 fd ba f2 9e da bc 85 71 1e bd
       -0.010061053 -0.0019345734 -0.02668712 -0.03868248
0000e0 a7 c3 31 3d 63 74 6b 3c 25 b0 6c bc 9a 86 01 3d
       0.04339948 0.0143710105 -0.014446293 0.031622507
0000f0 d8 83 0c bd 39 eb 0a bb 69 9c 6c 3b 01 2a 19 bd
       -0.034305423 -0.0021197333 0.003610397 -0.037393574
000100 eb e7 b5 bd 31 34 d1 bc 24 e9 c3 bd 93 95 e1 3b
       -0.088821255 -0.025537582 -0.095659524 0.0068842857
000110 04 aa 68 3c 47 14 8a 3d 17 02 ac 3d 66 02 49 3d
       0.014200691 0.06742149 0.08398836 0.049074553
000120 ea f4 40 bd 43 b6 ae bc b5 65 43 3d ba 44 65 bd
       -0.04710857 -0.021327144 0.047704417 -0.055973746
000130 22 59 05 3d c0 9b 3a bd 3e dd 04 bc 5f ec 77 3d
       0.032555707 -0.04555869 -0.008109389 0.060528155
000140 71 8b 96 3d ec ae b9 3c 55 32 d4 3d e9 f1 99 bc
       0.07350815 0.022666417 0.103611626 -0.01879211
000150 bf bd 7d bc 48 31 7c bd b7 7d a0 bd 54 58 81 bd
       -0.0154871335 -0.061570436 -0.07836478 -0.063156754
000160 22 60 65 3d 31 6b 99 3c bc 21 6e bd f0 b7 69 3d
       0.055999883 0.01872787 -0.05813764 0.057060182
000170 0f ac f5 bc 26 9f 0d 3d c8 88 2a 3a d1 a2 87 bd
       -0.02998927 0.034575604 0.00065053673 -0.06622852
000180 69 8b 9a bd 2c 0b 90 3a 51 44 ac bd ab 91 99 bb
       -0.075461216 0.0010989658 -0.08411468 -0.0046865544
000190 9a 2e ea 3c d3 03 fe 3c 82 78 ab 3d 1b 10 95 3d
       0.028586674 0.031007683 0.083725944 0.072784625
0001a0 e3 cf 0e bd 0f f2 15 bd f7 71 92 3d 03 a5 83 bd
       -0.034866225 -0.0366078 0.07150643 -0.06427958
0001b0 f2 57 19 3d bb cd 68 bd 44 3d a1 3b e5 95 83 3d
       0.037437387 -0.056836825 0.0049206335 0.064250745
0001c0 c9 bd 88 3d 3a 16 21 3d a8 91 b9 3d 25 4b 9b bc
       0.06676824 0.039327838 0.09060985 -0.01895673
0001d0 01 74 9e bc 87 94 47 bd 21 a0 ac bd f1 56 74 bd
       -0.019342424 -0.04872563 -0.0842898 -0.059653226
0001e0 57 57 3d 3d 55 d0 6e 3c df 6e 55 bd 9b 06 1e 3d
       0.046225872 0.014576037 -0.052107688 0.03858052
0001f0 ac b8 18 bd 96 e6 29 3d d4 c4 44 3c 20 aa 64 bd
       -0.03728549 0.04147967 0.012009818 -0.055826306
000200 1f fb cf bc 72 ae 76 3c 8f 33 ae bc 9d 18 25 3c
       -0.025388299 0.015056239 -0.02126482 0.010076669
000210 de 8c 46 3c a7 d6 3b bd c1 f4 f7 3b af 94 54 3c
       0.012118546 -0.045859005 0.0075670187 0.012974902
000220 33 f8 10 bc 3a ed 3f bc fd 7c 69 3b dd 0a 8e bc
       -0.008848238 -0.011714274 0.0035627477 -0.017339164
000230 1f cf 27 3d 7a d3 e8 3b 0f e9 16 bd dd 26 f4 3c
       0.04096901 0.007105288 -0.036843356 0.029803688
000240 02 f6 cb 3c 73 6b 3c bb b0 51 f2 3c d9 1a f9 3b
       0.02489758 -0.0028750568 0.029579967 0.0076020774
000250 66 87 1e 3c a7 54 0f 3d b8 22 ab bb 77 a7 8b bc
       0.009675836 0.03499284 -0.0052226447 -0.017047627
000260 6f 46 e5 3b d1 09 54 ba c5 b9 2b bb 3f 97 80 3c
       0.0069969217 -0.0008088621 -0.0026203257 0.01569712
000270 4a c5 01 bd c0 2e ab bc 3c 0b 77 3c 8f 18 d2 bc
       -0.03168229 -0.020896316 0.015078362 -0.025646476
000280 61 a5 b0 bc 88 6c a8 3c d8 a2 aa ba f9 3c 4e bb
       -0.021563234 0.020559564 -0.0013018502 -0.0031469448
000290 14 47 11 b9 86 20 0d bd e7 c9 ff bb ac 7a 93 3c
       -0.00013854756 -0.034454845 -0.007806051 0.01800283
0002a0 86 38 c5 bc c6 6f 95 bc a2 9a 03 3b 4a bf 2b 3b
       -0.024074804 -0.018241774 0.0020081182 0.0026206546
0002b0 e0 02 0b 3d 66 af c1 3b bb 16 00 bc 6c 21 91 3c
       0.03393829 0.0059108017 -0.007817919 0.017716132
0002c0 70 8e e3 3c ae 35 e8 bc 57 a8 c0 3c 38 b2 39 ba
       0.02777788 -0.028345909 0.02351777 -0.00070837466
0002d0 ec 61 34 3c 4a 4b 79 3d 58 35 57 3b ea 86 99 bc
       0.0110096745 0.060862817 0.0032838192 -0.01874109
0002e0 ad 88 da 3c 8a 47 9f 3c 6f 8c aa bc f2 3f 90 3c
       0.0266765 0.019443292 -0.020818917 0.017608617
0002f0 82 f5 10 bd 12 48 ba b9 49 15 01 3c cc fb 21 bc
       -0.035390384 -0.0003553038 0.00787861 -0.009886693
000300 f5 88 50 bc 90 35 2e 3c 9a 6e e5 bc d8 31 70 bc
       -0.012727966 0.0106328875 -0.02800684 -0.014660321
000310 bf a7 54 3c 24 42 ff bc 71 54 31 3c b0 88 93 3c
       0.012979447 -0.031159468 0.010823355 0.018009514
000320 00 f2 55 ba f7 75 88 3a c3 8c cc ba 91 42 e7 3a
       -0.0008161366 0.0010411133 -0.0015605915 0.001764374
000330 1e 57 e7 3c fe a5 74 3c 14 3b 00 bc 0e ca 80 3c
       0.028239783 0.014932154 -0.007826585 0.015721347
000340 20 86 68 bc 82 db 2c 3c 39 4e 6b bb bd 36 0d bc
       -0.014192134 0.010550382 -0.0035904779 -0.008619008
000350 70 11 16 bc fb 87 89 bc 2c 86 fe 39 aa eb 62 3c
       -0.009159431 -0.016788473 0.0004854662 0.013850132
000360 2f d0 51 bc d1 4f 1b bc 62 d5 6c 3b f4 00 11 bc
       -0.0128059825 -0.009479479 0.0036137928 -0.008850325
000370 ea 28 e7 3c 34 c1 16 3c 40 93 ba bb 13 d1 9b 3b
       0.028217752 0.009201337 -0.005693823 0.004755148
000380 6a 71 6b 3b 8b f8 98 bc 5f 8e 62 3c 3f d2 4e 3c
       0.0035925754 -0.018673202 0.013827889 0.012623369
000390 69 45 16 bc d5 89 a6 3c a0 65 ff bb d2 7f f1 bc
       -0.009171822 0.020329395 -0.007794097 -0.029479895
0003a0 fc 7c e4 3b 4e 3f c3 39 fe 78 0f bc 2d c2 bf 3c
       0.006972907 0.00037240464 -0.008756874 0.02340802
0003b0 f6 2a d3 bc af 98 29 bb 5b 65 60 3b c5 e0 a5 3b
       -0.025777321 -0.002587836 0.00342401 0.005062195
0003c0 fc 55 e6 bc d4 26 92 3c 6d 82 7e bc 42 71 be bb
       -0.028117172 0.01784078 -0.015534026 -0.005811841
0003d0 dd d0 08 bc 04 8d 1e bd 0c 6d f6 3b ac 13 a7 3c
       -0.008350578 -0.0387087 0.0075203236 0.020395122
0003e0 63 c8 e8 bc 8d fb 29 bb 05 9a e3 3b 8a f6 2e bc
       -0.028415864 -0.002593729 0.006945851 -0.010678897
0003f0 71 94 fa 3c 8c 01 07 3c af 34 98 bc af 3d 15 3d
       0.03058836 0.008240115 -0.018579809 0.03643578
